…
80/","height":1000}},"source":["Res_model = applications.ResNet50V2(weights = 'imagenet', include_top = False, input_shape = input_shape_Res)\n","Res_model.summary()"],"execution_count":5,"outputs":[{"output_type":"stream","text":["Model: \"resnet50v2\"\n","__________________________________________________________________________________________________\n","Layer (type)                    Output Shape         Param #     Connected to                     \n","==================================================================================================\n","input_1 (InputLayer)            [(None, 224, 224, 3) 0                                            \n","__________________________________________________________________________________________________\n","conv1_pad (ZeroPadding2D)       (None, 230, 230, 3)  0           input_1[0][0]                    \n","__________________________________________________________________________________________________\n","conv1_conv (Conv2D)             (None, 112, 112, 64) 9472        conv1_pad[0][0]                  \n","__________________________________________________________________________________________________\n","pool1_pad (ZeroPadding2D)       (None, 114, 114, 64) 0           conv1_conv[0][0]                 \n","__________________________________________________________________________________________________\n","pool1_pool (MaxPooling2D)       (None, 56, 56, 64)   0           pool1_pad[0][0]                  \n","__________________________________________________________________________________________________\n","conv2_block1_preact_bn (BatchNo (None, 56, 56, 64)   256         pool1_pool[0][0]                 \n","__________________________________________________________________________________________________\n","conv2_block1_preact_relu (Activ (None, 56, 56, 64)   0           conv2_block1_preact_bn[0][0]     \n","__________________________________________________________________________________________________\n","conv2_block1_1_conv (Conv2D)    (None, 56, 56, 64)   4096        conv2_block1_preact_relu[0][0]   \n","__________________________________________________________________________________________________\n","conv2_block1_1_bn (BatchNormali (None, 56, 56, 64)   256         conv2_block1_1_conv[0][0]        \n","__________________________________________________________________________________________________\n","conv2_block1_1_relu (Activation (None, 56, 56, 64)   0           conv2_block1_1_bn[0][0]          \n","__________________________________________________________________________________________________\n","conv2_block1_2_pad (ZeroPadding (None, 58, 58, 64)   0           conv2_block1_1_relu[0][0]        \n","__________________________________________________________________________________________________\n","conv2_block1_2_conv (Conv2D)    (None, 56, 56, 64)   36864       conv2_block1_2_pad[0][0]         \n","__________________________________________________________________________________________________\n","conv2_block1_2_bn (BatchNormali (None, 56, 56, 64)   256         conv2_block1_2_conv[0][0]        \n","__________________________________________________________________________________________________\n","conv2_block1_2_relu (Activation (None, 56, 56, 64)   0           conv2_block1_2_bn[0][0]          \n","__________________________________________________________________________________________________\n","conv2_block1_0_conv (Conv2D)    (None, 56, 56, 256)  16640       conv2_block1_preact_relu[0][0]   \n","__________________________________________________________________________________________________\n","conv2_block1_3_conv (Conv2D)    (None, 56, 56, 256)  16640       conv2_block1_2_relu[0][0]        \n","__________________________________________________________________________________________________\n","conv2_block1_out (Add)          (None, 56, 56, 256)  0           conv2_block1_0_conv[0][0]        \n","                                                                 conv2_block1_3_conv[0][0]        \n","__________________________________________________________________________________________________\n","conv2_block2_preact_bn (BatchNo (None, 56, 56, 256)  1024        conv2_block1_out[0][0]           \n","__________________________________________________________________________________________________\n","conv2_block2_preact_relu (Activ (None, 56, 56, 256)  0           conv2_block2_preact_bn[0][0]     \n","__________________________________________________________________________________________________\n","conv2_block2_1_conv (Conv2D)    (None, 56, 56, 64)   16384       conv2_block2_preact_relu[0][0]   \n","__________________________________________________________________________________________________\n","conv2_block2_1_bn (BatchNormali (None, 56, 56, 64)   256         conv2_block2_1_conv[0][0]        \n","__________________________________________________________________________________________________\n","conv2_block2_1_relu (Activation (None, 56, 56, 64)   0           conv2_block2_1_bn[0][0]          \n","__________________________________________________________________________________________________\n","conv2_block2_2_pad (ZeroPadding (None, 58, 58, 64)   0           conv2_block2_1_relu[0][0]        \n","__________________________________________________________________________________________________\n","conv2_block2_2_conv (Conv2D)    (None, 56, 56, 64)   36864       conv2_block2_2_pad[0][0]         \n","__________________________________________________________________________________________________\n","conv2_block2_2_bn (BatchNormali (None, 56, 56, 64)   256         conv2_block2_2_conv[0][0]        \n","__________________________________________________________________________________________________\n","conv2_block2_2_relu (Activation (None, 56, 56, 64)   0           conv2_block2_2_bn[0][0]          \n","__________________________________________________________________________________________________\n","conv2_block2_3_conv (Conv2D)    (None, 56, 56, 256)  16640       conv2_block2_2_relu[0][0]        \n","__________________________________________________________________________________________________\n","conv2_block2_out (Add)          (None, 56, 56, 256)  0           conv2_block1_out[0][0]           \n","                                                                 conv2_block2_3_conv[0][0]        \n","__________________________________________________________________________________________________\n","conv2_block3_preact_bn (BatchNo (None, 56, 56, 256)  1024        conv2_block2_out[0][0]           \n","__________________________________________________________________________________________________\n","conv2_block3_preact_relu (Activ (None, 56, 56, 256)  0           conv2_block3_preact_bn[0][0]     \n","__________________________________________________________________________________________________\n","conv2_block3_1_conv (Conv2D)    (None, 56, 56, 64)   16384       conv2_block3_preact_relu[0][0]   \n","__________________________________________________________________________________________________\n","conv2_block3_1_bn (BatchNormali (None, 56, 56, 64)   256         conv2_block3_1_conv[0][0]        \n","__________________________________________________________________________________________________\n","conv2_block3_1_relu (Activation (None, 56, 56, 64)   0           conv2_block3_1_bn[0][0]          \n","__________________________________________________________________________________________________\n","conv2_block3_2_pad (ZeroPadding (None, 58, 58, 64)   0           conv2_block3_1_relu[0][0]        \n","__________________________________________________________________________________________________\n","conv2_block3_2_conv (Conv2D)    (None, 28, 28, 64)   36864       conv2_block3_2_pad[0][0]         \n","__________________________________________________________________________________________________\n","conv2_block3_2_bn (BatchNormali (None, 28, 28, 64)   256         conv2_block3_2_conv[0][0]        \n","__________________________________________________________________________________________________\n","conv2_block3_2_relu (Activation (None, 28, 28, 64)   0           conv2_block3_2_bn[0][0]          \n","__________________________________________________________________________________________________\n","max_pooling2d (MaxPooling2D)    (None, 28, 28, 256)  0           conv2_block2_out[0][0]           \n","__________________________________________________________________________________________________\n","conv2_block3_3_conv (Conv2D)    (None, 28, 28, 256)  16640       conv2_block3_2_relu[0][0]        \n","__________________________________________________________________________________________________\n","conv2_block3_out (Add)          (None, 28, 28, 256)  0           max_pooling2d[0][0]              \n","                                                                 conv2_block3_3_conv[0][0]        \n","__________________________________________________________________________________________________\n","conv3_block1_preact_bn (BatchNo (None, 28, 28, 256)  1024        conv2_block3_out[0][0]           \n","__________________________________________________________________________________________________\n","conv3_block1_preact_relu (Activ (None, 28, 28, 256)  0           conv3_block1_preact_bn[0][0]     \n","__________________________________________________________________________________________________\n","conv3_block1_1_conv (Conv2D)    (None, 28, 28, 128)  32768       conv3_block1_preact_relu[0][0]   \n","__________________________________________________________________________________________________\n","conv3_block1_1_bn (BatchNormali (None, 28, 28, 128)  512         conv3_block1_1_conv[0][0]        \n","__________________________________________________________________________________________________\n","conv3_block1_1_relu (Activation (None, 28, 28, 128)  0           conv3_block1_1_bn[0][0]          \n","__________________________________________________________________________________________________\n","conv3_block1_2_pad (ZeroPadding (None, 30, 30, 128)  0           conv3_block1_1_relu[0][0]        \n","__________________________________________________________________________________________________\n","conv3_block1_2_conv (Conv2D)    (None, 28, 28, 128)  147456      conv3_block1_2_pad[0][0]         \n","__________________________________________________________________________________________________\n","conv3_block1_2_bn (BatchNormali (None, 28, 28, 128)  512         conv3_block1_2_conv[0][0]        \n","__________________________________________________________________________________________________\n","conv3_block1_2_relu (Activation (None, 28, 28, 128)  0           conv3_block1_2_bn[0][0]          \n","__________________________________________________________________________________________________\n","conv3_block1_0_conv (Conv2D)    (None, 28, 28, 512)  131584      conv3_block1_preact_relu[0][0]   \n","__________________________________________________________________________________________________\n","conv3_block1_3_conv (Conv2D)    (None, 28, 28, 512)  66048       conv3_block1_2_relu[0][0]        \n","__________________________________________________________________________________________________\n","conv3_block1_out (Add)          (None, 28, 28, 512)  0           conv3_block1_0_conv[0][0]        \n","                                                                 conv3_block1_3_conv[0][0]        \n","__________________________________________________________________________________________________\n","conv3_block2_preact_bn (BatchNo (None, 28, 28, 512)  2048        conv3_block1_out[0][0]           \n","__________________________________________________________________________________________________\n","conv3_block2_preact_relu (Activ (None, 28, 28, 512)  0           conv3_block2_preact_bn[0][0]     \n","__________________________________________________________________________________________________\n","conv3_block2_1_conv (Conv2D)    (None, 28, 28, 128)  65536       conv3_block2_preact_relu[0][0]   \n","__________________________________________________________________________________________________\n","conv3_block2_1_bn (BatchNormali (None, 28, 28, 128)  512         conv3_block2_1_conv[0][0]        \n","__________________________________________________________________________________________________\n","conv3_block2_1_relu (Activation (None, 28, 28, 128)  0           conv3_block2_1_bn[0][0]          \n","__________________________________________________________________________________________________\n","conv3_block2_2_pad (ZeroPadding (None, 30, 30, 128)  0           conv3_block2_1_relu[0][0]        \n","__________________________________________________________________________________________________\n","conv3_block2_2_conv (Conv2D)    (None, 28, 28, 128)  147456      conv3_block2_2_pad[0][0]         \n","__________________________________________________________________________________________________\n","conv3_block2_2_bn (BatchNormali (None, 28, 28, 128)  512         conv3_block2_2_conv[0][0]        \n","__________________________________________________________________________________________________\n","conv3_block2_2_relu (Activation (None, 28, 28, 128)  0           conv3_block2_2_bn[0][0]          \n","__________________________________________________________________________________________________\n","conv3_block2_3_conv (Conv2D)    (None, 28, 28, 512)  66048       conv3_block2_2_relu[0][0]        \n","__________________________________________________________________________________________________\n","conv3_block2_out (Add)          (None, 28, 28, 512)  0           conv3_block1_out[0][0]           \n","                                                                 conv3_block2_3_conv[0][0]        \n","__________________________________________________________________________________________________\n","conv3_block3_preact_bn (BatchNo (None, 28, 28, 512)  2048        conv3_block2_out[0][0]           \n","__________________________________________________________________________________________________\n","conv3_block3_preact_relu (Activ (None, 28, 28, 512)  0           conv3_block3_preact_bn[0][0]     \n","__________________________________________________________________________________________________\n","conv3_block3_1_conv (Conv2D)    (None, 28, 28, 128)  65536       conv3_block3_preact_relu[0][0]   \n","__________________________________________________________________________________________________\n","conv3_block3_1_bn (BatchNormali (None, 28, 28, 128)  512         conv3_block3_1_conv[0][0]        \n","__________________________________________________________________________________________________\n","conv3_block3_1_relu (Activation (None, 28, 28, 128)  0           conv3_block3_1_bn[0][0]          \n","__________________________________________________________________________________________________\n","conv3_block3_2_pad (ZeroPadding (None, 30, 30, 128)  0           conv3_block3_1_relu[0][0]        \n","__________________________________________________________________________________________________\n","conv3_block3_2_conv (Conv2D)    (None, 28, 28, 128)  147456      conv3_block3_2_pad[0][0]         \n","__________________________________________________________________________________________________\n","conv3_block3_2_bn (BatchNormali (None, 28, 28, 128)  512         conv3_block3_2_conv[0][0]        \n","__________________________________________________________________________________________________\n","conv3_block3_2_relu (Activation (None, 28, 28, 128)  0           conv3_block3_2_bn[0][0]          \n","__________________________________________________________________________________________________\n","conv3_block3_3_conv (Conv2D)    (None, 28, 28, 512)  66048       conv3_block3_2_relu[0][0]        \n","__________________________________________________________________________________________________\n","conv3_block3_out (Add)          (None, 28, 28, 512)  0           conv3_block2_out[0][0]           \n","                                                                 conv3_block3_3_conv[0][0]        \n","__________________________________________________________________________________________________\n","conv3_block4_preact_bn (BatchNo (None, 28, 28, 512)  2048        conv3_block3_out[0][0]           \n","__________________________________________________________________________________________________\n","conv3_block4_preact_relu (Activ (None, 28, 28, 512)  0           conv3_block4_preact_bn[0][0]     \n","__________________________________________________________________________________________________\n","conv3_block4_1_conv (Conv2D)    (None, 28, 28, 128)  65536       conv3_block4_preact_relu[0][0]   \n","__________________________________________________________________________________________________\n","conv3_block4_1_bn (BatchNormali (None, 28, 28, 128)  512         conv3_block4_1_conv[0][0]        \n","__________________________________________________________________________________________________\n","conv3_block4_1_relu (Activation (None, 28, 28, 128)  0           conv3_block4_1_bn[0][0]          \n","__________________________________________________________________________________________________\n","conv3_block4_2_pad (ZeroPadding (None, 30, 30, 128)  0           conv3_block4_1_relu[0][0]        \n","__________________________________________________________________________________________________\n","conv3_block4_2_conv (Conv2D)    (None, 14, 14, 128)  147456      conv3_block4_2_pad[0][0]         \n","__________________________________________________________________________________________________\n","conv3_block4_2_bn (BatchNormali (None, 14, 14, 128)  512         conv3_block4_2_conv[0][0]        \n","__________________________________________________________________________________________________\n","conv3_block4_2_relu (Activation (None, 14, 14, 128)  0           conv3_block4_2_bn[0][0]          \n","__________________________________________________________________________________________________\n","max_pooling2d_1 (MaxPooling2D)  (None, 14, 14, 512)  0           conv3_block3_out[0][0]           \n","__________________________________________________________________________________________________\n","conv3_block4_3_conv (Conv2D)    (None, 14, 14, 512)  66048       conv3_block4_2_relu[0][0]        \n","__________________________________________________________________________________________________\n","conv3_block4_out (Add)          (None, 14, 14, 512)  0           max_pooling2d_1[0][0]            \n","                                                                 conv3_block4_3_conv[0][0]        \n","__________________________________________________________________________________________________\n","conv4_block1_preact_bn (BatchNo (None, 14, 14, 512)  2048        conv3_block4_out[0][0]           \n","__________________________________________________________________________________________________\n","conv4_block1_preact_relu (Activ (None, 14, 14, 512)  0           conv4_block1_preact_bn[0][0]     \n","__________________________________________________________________________________________________\n","conv4_block1_1_conv (Conv2D)    (None, 14, 14, 256)  131072      conv4_block1_preact_relu[0][0]   \n","__________________________________________________________________________________________________\n","conv4_block1_1_bn (BatchNormali (None, 14, 14, 256)  1024        conv4_block1_1_conv[0][0]        \n","__________________________________________________________________________________________________\n","conv4_block1_1_relu (Activation (None, 14, 14, 256)  0           conv4_block1_1_bn[0][0]          \n","__________________________________________________________________________________________________\n","conv4_block1_2_pad (ZeroPadding (None, 16, 16, 256)  0           conv4_block1_1_relu[0][0]        \n","__________________________________________________________________________________________________\n","conv4_block1_2_conv (Conv2D)    (None, 14, 14, 256)  589824      conv4_block1_2_pad[0][0]         \n","__________________________________________________________________________________________________\n","conv4_block1_2_bn (BatchNormali (None, 14, 14, 256)  1024        conv4_block1_2_conv[0][0]        \n","__________________________________________________________________________________________________\n","conv4_block1_2_relu (Activation (None, 14, 14, 256)  0           conv4_block1_2_bn[0][0]          \n","__________________________________________________________________________________________________\n","conv4_block1_0_conv (Conv2D)    (None, 14, 14, 1024) 525312      conv4_block1_preact_relu[0][0]   \n","__________________________________________________________________________________________________\n","conv4_block1_3_conv (Conv2D)    (None, 14, 14, 1024) 263168      conv4_block1_2_relu[0][0]        \n","__________________________________________________________________________________________________\n","conv4_block1_out (Add)          (None, 14, 14, 1024) 0           conv4_block1_0_conv[0][0]        \n","                                                                 conv4_block1_3_conv[0][0]        \n","__________________________________________________________________________________________________\n","conv4_block2_preact_bn (BatchNo (None, 14, 14, 1024) 4096        conv4_block1_out[0][0]           \n","__________________________________________________________________________________________________\n","conv4_block2_preact_relu (Activ (None, 14, 14, 1024) 0           conv4_block2_preact_bn[0][0]     \n","__________________________________________________________________________________________________\n","conv4_block2_1_conv (Conv2D)    (None, 14, 14, 256)  262144      conv4_block2_preact_relu[0][0]   \n","__________________________________________________________________________________________________\n","conv4_block2_1_bn (BatchNormali (None, 14, 14, 256)  1024        conv4_block2_1_conv[0][0]        \n","__________________________________________________________________________________________________\n","conv4_block2_1_relu (Activation (None, 14, 14, 256)  0           conv4_block2_1_bn[0][0]          \n","__________________________________________________________________________________________________\n","conv4_block2_2_pad (ZeroPadding (None, 16, 16, 256)  0           conv4_block2_1_relu[0][0]        \n","__________________________________________________________________________________________________\n","conv4_block2_2_conv (Conv2D)    (None, 14, 14, 256)  589824      conv4_block2_2_pad[0][0]         \n","__________________________________________________________________________________________________\n","conv4_block2_2_bn (BatchNormali (None, 14, 14, 256)  1024        conv4_block2_2_conv[0][0]        \n","__________________________________________________________________________________________________\n","conv4_block2_2_relu (Activation (None, 14, 14, 256)  0           conv4_block2_2_bn[0][0]          \n","__________________________________________________________________________________________________\n","conv4_block2_3_conv (Conv2D)    (None, 14, 14, 1024) 263168      conv4_block2_2_relu[0][0]        \n","__________________________________________________________________________________________________\n","conv4_block2_out (Add)          (None, 14, 14, 1024) 0           conv4_block1_out[0][0]           \n","                                                                 conv4_block2_3_conv[0][0]        \n","__________________________________________________________________________________________________\n","conv4_block3_preact_bn (BatchNo (None, 14, 14, 1024) 4096        conv4_block2_out[0][0]           \n","__________________________________________________________________________________________________\n","conv4_block3_preact_relu (Activ (None, 14, 14, 1024) 0           conv4_block3_preact_bn[0][0]     \n","__________________________________________________________________________________________________\n","conv4_block3_1_conv (Conv2D)    (None, 14, 14, 256)  262144      conv4_block3_preact_relu[0][0]   \n","__________________________________________________________________________________________________\n","conv4_block3_1_bn (BatchNormali (None, 14, 14, 256)  1024        conv4_block3_1_conv[0][0]        \n","__________________________________________________________________________________________________\n","conv4_block3_1_relu (Activation (None, 14, 14, 256)  0           conv4_block3_1_bn[0][0]          \n","__________________________________________________________________________________________________\n","conv4_block3_2_pad (ZeroPadding (None, 16, 16, 256)  0           conv4_block3_1_relu[0][0]        \n","__________________________________________________________________________________________________\n","conv4_block3_2_conv (Conv2D)    (None, 14, 14, 256)  589824      conv4_block3_2_pad[0][0]         \n","__________________________________________________________________________________________________\n","conv4_block3_2_bn (BatchNormali (None, 14, 14, 256)  1024        conv4_block3_2_conv[0][0]        \n","__________________________________________________________________________________________________\n","conv4_block3_2_relu (Activation (None, 14, 14, 256)  0           conv4_block3_2_bn[0][0]          \n","__________________________________________________________________________________________________\n","conv4_block3_3_conv (Conv2D)    (None, 14, 14, 1024) 263168      conv4_block3_2_relu[0][0]        \n","__________________________________________________________________________________________________\n","conv4_block3_out (Add)          (None, 14, 14, 1024) 0           conv4_block2_out[0][0]           \n","                                                                 conv4_block3_3_conv[0][0]        \n","__________________________________________________________________________________________________\n","conv4_block4_preact_bn (BatchNo (None, 14, 14, 1024) 4096        conv4_block3_out[0][0]           \n","__________________________________________________________________________________________________\n","conv4_block4_preact_relu (Activ (None, 14, 14, 1024) 0           conv4_block4_preact_bn[0][0]     \n","__________________________________________________________________________________________________\n","conv4_block4_1_conv (Conv2D)    (None, 14, 14, 256)  262144      conv4_block4_preact_relu[0][0]   \n","__________________________________________________________________________________________________\n","conv4_block4_1_bn (BatchNormali (None, 14, 14, 256)  1024        conv4_block4_1_conv[0][0]        \n","__________________________________________________________________________________________________\n","conv4_block4_1_relu (Activation (None, 14, 14, 256)  0           conv4_block4_1_bn[0][0]          \n","__________________________________________________________________________________________________\n","conv4_block4_2_pad (ZeroPadding (None, 16, 16, 256)  0           conv4_block4_1_relu[0][0]        \n","__________________________________________________________________________________________________\n","conv4_block4_2_conv (Conv2D)    (None, 14, 14, 256)  589824      conv4_block4_2_pad[0][0]         \n","__________________________________________________________________________________________________\n","conv4_block4_2_bn (BatchNormali (None, 14, 14, 256)  1024        conv4_block4_2_conv[0][0]        \n","__________________________________________________________________________________________________\n","conv4_block4_2_relu (Activation (None, 14, 14, 256)  0           conv4_block4_2_bn[0][0]          \n","__________________________________________________________________________________________________\n","conv4_block4_3_conv (Conv2D)    (None, 14, 14, 1024) 263168      conv4_block4_2_relu[0][0]        \n","__________________________________________________________________________________________________\n","conv4_block4_out (Add)          (None, 14, 14, 1024) 0           conv4_block3_out[0][0]           \n","                                                                 conv4_block4_3_conv[0][0]        \n","__________________________________________________________________________________________________\n","conv4_block5_preact_bn (BatchNo (None, 14, 14, 1024) 4096        conv4_block4_out[0][0]           \n","__________________________________________________________________________________________________\n","conv4_block5_preact_relu (Activ (None, 14, 14, 1024) 0           conv4_block5_preact_bn[0][0]     \n","__________________________________________________________________________________________________\n","conv4_block5_1_conv (Conv2D)    (None, 14, 14, 256)  262144      conv4_block5_preact_relu[0][0]   \n","__________________________________________________________________________________________________\n","conv4_block5_1_bn (BatchNormali (None, 14, 14, 256)  1024        conv4_block5_1_conv[0][0]        \n","__________________________________________________________________________________________________\n","conv4_block5_1_relu (Activation (None, 14, 14, 256)  0           conv4_block5_1_bn[0][0]          \n","__________________________________________________________________________________________________\n","conv4_block5_2_pad (ZeroPadding (None, 16, 16, 256)  0           conv4_block5_1_relu[0][0]        \n","__________________________________________________________________________________________________\n","conv4_block5_2_conv (Conv2D)    (None, 14, 14, 256)  589824      conv4_block5_2_pad[0][0]         \n","__________________________________________________________________________________________________\n","conv4_block5_2_bn (BatchNormali (None, 14, 14, 256)  1024        conv4_block5_2_conv[0][0]        \n","__________________________________________________________________________________________________\n","conv4_block5_2_relu (Activation (None, 14, 14, 256)  0           conv4_block5_2_bn[0][0]          \n","__________________________________________________________________________________________________\n","conv4_block5_3_conv (Conv2D)    (None, 14, 14, 1024) 263168      conv4_block5_2_relu[0][0]        \n","__________________________________________________________________________________________________\n","conv4_block5_out (Add)          (None, 14, 14, 1024) 0           conv4_block4_out[0][0]           \n","                                                                 conv4_block5_3_conv[0][0]        \n","__________________________________________________________________________________________________\n","conv4_block6_preact_bn (BatchNo (None, 14, 14, 1024) 4096        conv4_block5_out[0][0]           \n","__________________________________________________________________________________________________\n","conv4_block6_preact_relu (Activ (None, 14, 14, 1024) 0           conv4_block6_preact_bn[0][0]     \n","__________________________________________________________________________________________________\n","conv4_block6_1_conv (Conv2D)    (None, 14, 14, 256)  262144      conv4_block6_preact_relu[0][0]   \n","__________________________________________________________________________________________________\n","conv4_block6_1_bn (BatchNormali (None, 14, 14, 256)  1024        conv4_block6_1_conv[0][0]        \n","__________________________________________________________________________________________________\n","conv4_block6_1_relu (Activation (None, 14, 14, 256)  0           conv4_block6_1_bn[0][0]          \n","__________________________________________________________________________________________________\n","conv4_block6_2_pad (ZeroPadding (None, 16, 16, 256)  0           conv4_block6_1_relu[0][0]        \n","__________________________________________________________________________________________________\n","conv4_block6_2_conv (Conv2D)    (None, 7, 7, 256)    589824      conv4_block6_2_pad[0][0]         \n","__________________________________________________________________________________________________\n","conv4_block6_2_bn (BatchNormali (None, 7, 7, 256)    1024        conv4_block6_2_conv[0][0]        \n","__________________________________________________________________________________________________\n","conv4_block6_2_relu (Activation (None, 7, 7, 256)    0           conv4_block6_2_bn[0][0]          \n","__________________________________________________________________________________________________\n","max_pooling2d_2 (MaxPooling2D)  (None, 7, 7, 1024)   0           conv4_block5_out[0][0]           \n","__________________________________________________________________________________________________\n","conv4_block6_3_conv (Conv2D)    (None, 7, 7, 1024)   263168      conv4_block6_2_relu[0][0]        \n","__________________________________________________________________________________________________\n","conv4_block6_out (Add)          (None, 7, 7, 1024)   0           max_pooling2d_2[0][0]            \n","                                                                 conv4_block6_3_conv[0][0]        \n","__________________________________________________________________________________________________\n","conv5_block1_preact_bn (BatchNo (None, 7, 7, 1024)   4096        conv4_block6_out[0][0]           \n","__________________________________________________________________________________________________\n","conv5_block1_preact_relu (Activ (None, 7, 7, 1024)   0           conv5_block1_preact_bn[0][0]     \n","__________________________________________________________________________________________________\n","conv5_block1_1_conv (Conv2D)    (None, 7, 7, 512)    524288      conv5_block1_preact_relu[0][0]   \n","__________________________________________________________________________________________________\n","conv5_block1_1_bn (BatchNormali (None, 7, 7, 512)    2048        conv5_block1_1_conv[0][0]        \n","__________________________________________________________________________________________________\n","conv5_block1_1_relu (Activation (None, 7, 7, 512)    0           conv5_block1_1_bn[0][0]          \n","__________________________________________________________________________________________________\n","conv5_block1_2_pad (ZeroPadding (None, 9, 9, 512)    0           conv5_block1_1_relu[0][0]        \n","__________________________________________________________________________________________________\n","conv5_block1_2_conv (Conv2D)    (None, 7, 7, 512)    2359296     conv5_block1_2_pad[0][0]         \n","__________________________________________________________________________________________________\n","conv5_block1_2_bn (BatchNormali (None, 7, 7, 512)    2048        conv5_block1_2_conv[0][0]        \n","__________________________________________________________________________________________________\n","conv5_block1_2_relu (Activation (None, 7, 7, 512)    0           conv5_block1_2_bn[0][0]          \n","__________________________________________________________________________________________________\n","conv5_block1_0_conv (Conv2D)    (None, 7, 7, 2048)   2099200     conv5_block1_preact_relu[0][0]   \n","__________________________________________________________________________________________________\n","conv5_block1_3_conv (Conv2D)    (None, 7, 7, 2048)   1050624     conv5_block1_2_relu[0][0]        \n","__________________________________________________________________________________________________\n","conv5_block1_out (Add)          (None, 7, 7, 2048)   0           conv5_block1_0_conv[0][0]        \n","                                                                 conv5_block1_3_conv[0][0]        \n","__________________________________________________________________________________________________\n","conv5_block2_preact_bn (BatchNo (None, 7, 7, 2048)   8192        conv5_block1_out[0][0]           \n","__________________________________________________________________________________________________\n","conv5_block2_preact_relu (Activ (None, 7, 7, 2048)   0           conv5_block2_preact_bn[0][0]     \n","__________________________________________________________________________________________________\n","conv5_block2_1_conv (Conv2D)    (None, 7, 7, 512)    1048576     conv5_block2_preact_relu[0][0]   \n","__________________________________________________________________________________________________\n","conv5_block2_1_bn (BatchNormali (None, 7, 7, 512)    2048        conv5_block2_1_conv[0][0]        \n","__________________________________________________________________________________________________\n","conv5_block2_1_relu (Activation (None, 7, 7, 512)    0           conv5_block2_1_bn[0][0]          \n","__________________________________________________________________________________________________\n","conv5_block2_2_pad (ZeroPadding (None, 9, 9, 512)    0           conv5_block2_1_relu[0][0]        \n","__________________________________________________________________________________________________\n","conv5_block2_2_conv (Conv2D)    (None, 7, 7, 512)    2359296     conv5_block2_2_pad[0][0]         \n","__________________________________________________________________________________________________\n","conv5_block2_2_bn (BatchNormali (None, 7, 7, 512)    2048        conv5_block2_2_conv[0][0]        \n","__________________________________________________________________________________________________\n","conv5_block2_2_relu (Activation (None, 7, 7, 512)    0           conv5_block2_2_bn[0][0]          \n","__________________________________________________________________________________________________\n","conv5_block2_3_conv (Conv2D)    (None, 7, 7, 2048)   1050624     conv5_block2_2_relu[0][0]        \n","__________________________________________________________________________________________________\n","conv5_block2_out (Add)          (None, 7, 7, 2048)   0           conv5_block1_out[0][0]           \n","                                                                 conv5_block2_3_conv[0][0]        \n","__________________________________________________________________________________________________\n","conv5_block3_preact_bn (BatchNo (None, 7, 7, 2048)   8192        conv5_block2_out[0][0]           \n","__________________________________________________________________________________________________\n","conv5_block3_preact_relu (Activ (None, 7, 7, 2048)   0           conv5_block3_preact_bn[0][0]     \n","__________________________________________________________________________________________________\n","conv5_block3_1_conv (Conv2D)    (None, 7, 7, 512)    1048576     conv5_block3_preact_relu[0][0]   \n","__________________________________________________________________________________________________\n","conv5_block3_1_bn (BatchNormali (None, 7, 7, 512)    2048        conv5_block3_1_conv[0][0]        \n","__________________________________________________________________________________________________\n","conv5_block3_1_relu (Activation (None, 7, 7, 512)    0           conv5_block3_1_bn[0][0]          \n","__________________________________________________________________________________________________\n","conv5_block3_2_pad (ZeroPadding (None, 9, 9, 512)    0           conv5_block3_1_relu[0][0]        \n","__________________________________________________________________________________________________\n","conv5_block3_2_conv (Conv2D)    (None, 7, 7, 512)    2359296     conv5_block3_2_pad[0][0]         \n","__________________________________________________________________________________________________\n","conv5_block3_2_bn (BatchNormali (None, 7, 7, 512)    2048        conv5_block3_2_conv[0][0]        \n","__________________________________________________________________________________________________\n","conv5_block3_2_relu (Activation (None, 7, 7, 512)    0           conv5_block3_2_bn[0][0]          \n","__________________________________________________________________________________________________\n","conv5_block3_3_conv (Conv2D)    (None, 7, 7, 2048)   1050624     conv5_block3_2_relu[0][0]        \n","__________________________________________________________________________________________________\n","conv5_block3_out (Add)          (None, 7, 7, 2048)   0           conv5_block2_out[0][0]           \n","                                                                 conv5_block3_3_conv[0][0]        \n","__________________________________________________________________________________________________\n","post_bn (BatchNormalization)    (None, 7, 7, 2048)   8192        conv5_block3_out[0][0]           \n","__________________________________________________________________________________________________\n","post_relu (Activation)          (None, 7, 7, 2048)   0           post_bn[0][0]                    \n","==================================================================================================\n","Total params: 23,564,800\n","Trainable params: 23,519,360\n","Non-trainable params: 45,440\n","__________________________________________________________________________________________________\n"],"name":"stdout"}]},{"cell_type":"code","metadata":
…
lab":{"base_uri":"https://localhost:8080/","height":1000}},"source":["# input_shape = (256,256,1) # to change\n","generator = similar_unet(fn=64)\n","generator.summary()"],"execution_count":18,"outputs":[{"output_type":"stream","text":["Model: \"model\"\n","__________________________________________________________________________________________________\n","Layer (type)                    Output Shape         Param #     Connected to                     \n","==================================================================================================\n","input_7 (InputLayer)            [(None, 128, 128, 1) 0                                            \n","__________________________________________________________________________________________________\n","conv2d_14 (Conv2D)              (None, 64, 64, 64)   1088        input_7[0][0]                    \n","__________________________________________________________________________________________________\n","leaky_re_lu_13 (LeakyReLU)      (None, 64, 64, 64)   0           conv2d_14[0][0]                  \n","__________________________________________________________________________________________________\n","conv2d_15 (Conv2D)              (None, 32, 32, 64)   65600       leaky_re_lu_13[0][0]             \n","__________________________________________________________________________________________________\n","batch_normalization_12 (BatchNo (None, 32, 32, 64)   256         conv2d_15[0][0]                  \n","__________________________________________________________________________________________________\n","leaky_re_lu_14 (LeakyReLU)      (None, 32, 32, 64)   0           batch_normalization_12[0][0]     \n","__________________________________________________________________________________________________\n","input_6 (InputLayer)            [(None, 7, 7, 2048)] 0                                            \n","__________________________________________________________________________________________________\n","conv2d_16 (Conv2D)              (None, 16, 16, 128)  131200      leaky_re_lu_14[0][0]             \n","__________________________________________________________________________________________________\n","conv2d_20 (Conv2D)              (None, 4, 4, 512)    16777728    input_6[0][0]                    \n","__________________________________________________________________________________________________\n","batch_normalization_13 (BatchNo (None, 16, 16, 128)  512         conv2d_16[0][0]                  \n","__________________________________________________________________________________________________\n","leaky_re_lu_19 (LeakyReLU)      (None, 4, 4, 512)    0           conv2d_20[0][0]                  \n","__________________________________________________________________________________________________\n","leaky_re_lu_15 (LeakyReLU)      (None, 16, 16, 128)  0           batch_normalization_13[0][0]     \n","__________________________________________________________________________________________________\n","conv2d_21 (Conv2D)              (None, 2, 2, 512)    4194816     leaky_re_lu_19[0][0]             \n","__________________________________________________________________________________________________\n","conv2d_17 (Conv2D)              (None, 8, 8, 256)    524544      leaky_re_lu_15[0][0]             \n","__________________________________________________________________________________________________\n","batch_normalization_17 (BatchNo (None, 2, 2, 512)    2048        conv2d_21[0][0]                  \n","__________________________________________________________________________________________________\n","batch_normalization_14 (BatchNo (None, 8, 8, 256)    1024        conv2d_17[0][0]                  \n","__________________________________________________________________________________________________\n","leaky_re_lu_20 (LeakyReLU)      (None, 2, 2, 512)    0           batch_normalization_17[0][0]     \n","__________________________________________________________________________________________________\n","leaky_re_lu_16 (LeakyReLU)      (None, 8, 8, 256)    0           batch_normalization_14[0][0]     \n","__________________________________________________________________________________________________\n","conv2d_22 (Conv2D)              (None, 1, 1, 512)    4194816     leaky_re_lu_20[0][0]             \n","__________________________________________________________________________________________________\n","conv2d_18 (Conv2D)              (None, 4, 4, 512)    2097664     leaky_re_lu_16[0][0]             \n","__________________________________________________________________________________________________\n","batch_normalization_18 (BatchNo (None, 1, 1, 512)    2048        conv2d_22[0][0]                  \n","__________________________________________________________________________________________________\n","batch_normalization_15 (BatchNo (None, 4, 4, 512)    2048        conv2d_18[0][0]                  \n","__________________________________________________________________________________________________\n","leaky_re_lu_21 (LeakyReLU)      (None, 1, 1, 512)    0           batch_normalization_18[0][0]     \n","__________________________________________________________________________________________________\n","leaky_re_lu_17 (LeakyReLU)      (None, 4, 4, 512)    0           batch_normalization_15[0][0]     \n","__________________________________________________________________________________________________\n","conv2d_transpose_1 (Conv2DTrans (None, 2, 2, 512)    4194816     leaky_re_lu_21[0][0]             \n","__________________________________________________________________________________________________\n","conv2d_19 (Conv2D)              (None, 2, 2, 512)    4194816     leaky_re_lu_17[0][0]             \n","__________________________________________________________________________________________________\n","batch_normalization_19 (BatchNo (None, 2, 2, 512)    2048        conv2d_transpose_1[0][0]         \n","__________________________________________________________________________________________________\n","batch_normalization_16 (BatchNo (None, 2, 2, 512)    2048        conv2d_19[0][0]                  \n","__________________________________________________________________________________________________\n","dropout_1 (Dropout)             (None, 2, 2, 512)    0           batch_normalization_19[0][0]     \n","__________________________________________________________________________________________________\n","leaky_re_lu_18 (LeakyReLU)      (None, 2, 2, 512)    0           batch_normalization_16[0][0]     \n","__________________________________________________________________________________________________\n","concatenate_1 (Concatenate)     (None, 2, 2, 1024)   0           dropout_1[0][0]                  \n","                                                                 leaky_re_lu_18[0][0]             \n","__________________________________________________________________________________________________\n","activation (Activation)         (None, 2, 2, 1024)   0           concatenate_1[0][0]              \n","__________________________________________________________________________________________________\n","conv2d_transpose_2 (Conv2DTrans (None, 4, 4, 512)    8389120     activation[0][0]                 \n","__________________________________________________________________________________________________\n","batch_normalization_20 (BatchNo (None, 4, 4, 512)    2048        conv2d_transpose_2[0][0]         \n","__________________________________________________________________________________________________\n","dropout_2 (Dropout)             (None, 4, 4, 512)    0           batch_normalization_20[0][0]     \n","__________________________________________________________________________________________________\n","concatenate_2 (Concatenate)     (None, 4, 4, 1024)   0           dropout_2[0][0]                  \n","                                                                 leaky_re_lu_17[0][0]             \n","__________________________________________________________________________________________________\n","activation_1 (Activation)       (None, 4, 4, 1024)   0           concatenate_2[0][0]              \n","__________________________________________________________________________________________________\n","conv2d_transpose_3 (Conv2DTrans (None, 8, 8, 512)    8389120     activation_1[0][0]               \n","__________________________________________________________________________________________________\n","batch_normalization_21 (BatchNo (None, 8, 8, 512)    2048        conv2d_transpose_3[0][0]         \n","__________________________________________________________________________________________________\n","dropout_3 (Dropout)             (None, 8, 8, 512)    0           batch_normalization_21[0][0]     \n","__________________________________________________________________________________________________\n","concatenate_3 (Concatenate)     (None, 8, 8, 768)    0           dropout_3[0][0]                  \n","                                                                 leaky_re_lu_16[0][0]             \n","__________________________________________________________________________________________________\n","activation_2 (Activation)       (None, 8, 8, 768)    0           concatenate_3[0][0]              \n","__________________________________________________________________________________________________\n","conv2d_transpose_4 (Conv2DTrans (None, 16, 16, 256)  3145984     activation_2[0][0]               \n","__________________________________________________________________________________________________\n","batch_normalization_22 (BatchNo (None, 16, 16, 256)  1024        conv2d_transpose_4[0][0]         \n","__________________________________________________________________________________________________\n","concatenate_4 (Concatenate)     (None, 16, 16, 384)  0           batch_normalization_22[0][0]     \n","                                                                 leaky_re_lu_15[0][0]             \n","__________________________________________________________________________________________________\n","activation_3 (Activation)       (None, 16, 16, 384)  0           concatenate_4[0][0]              \n","__________________________________________________________________________________________________\n","conv2d_transpose_5 (Conv2DTrans (None, 32, 32, 128)  786560      activation_3[0][0]               \n","__________________________________________________________________________________________________\n","batch_normalization_23 (BatchNo (None, 32, 32, 128)  512         conv2d_transpose_5[0][0]         \n","__________________________________________________________________________________________________\n","concatenate_5 (Concatenate)     (None, 32, 32, 192)  0           batch_normalization_23[0][0]     \n","                                                                 leaky_re_lu_14[0][0]             \n","__________________________________________________________________________________________________\n","activation_4 (Activation)       (None, 32, 32, 192)  0           concatenate_5[0][0]              \n","__________________________________________________________________________________________________\n","conv2d_transpose_6 (Conv2DTrans (None, 64, 64, 64)   196672      activation_4[0][0]               \n","__________________________________________________________________________________________________\n","batch_normalization_24 (BatchNo (None, 64, 64, 64)   256         conv2d_transpose_6[0][0]         \n","__________________________________________________________________________________________________\n","concatenate_6 (Concatenate)     (None, 64, 64, 128)  0           batch_normalization_24[0][0]     \n","                                                                 leaky_re_lu_13[0][0]             \n","__________________________________________________________________________________________________\n","activation_5 (Activation)       (None, 64, 64, 128)  0           concatenate_6[0][0]              \n","__________________________________________________________________________________________________\n","conv2d_transpose_7 (Conv2DTrans (None, 128, 128, 64) 131136      activation_5[0][0]               \n","__________________________________________________________________________________________________\n","batch_normalization_25 (BatchNo (None, 128, 128, 64) 256         conv2d_transpose_7[0][0]         \n","__________________________________________________________________________________________________\n","concatenate_7 (Concatenate)     (None, 128, 128, 65) 0           batch_normalization_25[0][0]     \n","                                                                 input_7[0][0]                    \n","__________________________________________________________________________________________________\n","activation_6 (Activation)       (None, 128, 128, 65) 0           concatenate_7[0][0]              \n","__________________________________________________________________________________________________\n","conv2d_transpose_8 (Conv2DTrans (None, 256, 256, 64) 66624       activation_6[0][0]               \n","__________________________________________________________________________________________________\n","batch_normalization_26 (BatchNo (None, 256, 256, 64) 256         conv2d_transpose_8[0][0]         \n","__________________________________________________________________________________________________\n","activation_7 (Activation)       (None, 256, 256, 64) 0           batch_normalization_26[0][0]     \n","__________________________________________________________________________________________________\n","conv2d_transpose_9 (Conv2DTrans (None, 512, 512, 1)  1025        activation_7[0][0]               \n","__________________________________________________________________________________________________\n","activation_8 (Activation)       (None, 512, 512, 1)  0           conv2d_transpose_9[0][0]         \n","==================================================================================================\n","Total params: 57,501,761\n","Trainable params: 57,492,545\n","Non-trainable params: 9,216\n","__________________________________________________________________________________________________\n"],"name":"stdout"}]},{"cell_type":"code","metadata":{
…
  return model\n","output_shape = (output_x, output_y, 1)\n","discriminator = build_discriminator(input_shape_GAN, output_shape, fn = 64)\n","discriminator.summary()\n"],"execution_count":19,"outputs":[{"output_type":"stream","text":["Model: \"model_1\"\n","__________________________________________________________________________________________________\n","Layer (type)                    Output Shape         Param #     Connected to                     \n","==================================================================================================\n","input_9 (InputLayer)            [(None, 512, 512, 1) 0                                            \n","__________________________________________________________________________________________________\n","conv2d_24 (Conv2D)              (None, 256, 256, 64) 640         input_9[0][0]                    \n","__________________________________________________________________________________________________\n","activation_9 (Activation)       (None, 256, 256, 64) 0           conv2d_24[0][0]                  \n","__________________________________________________________________________________________________\n","conv2d_25 (Conv2D)              (None, 128, 128, 128 73856       activation_9[0][0]               \n","__________________________________________________________________________________________________\n","batch_normalization_27 (BatchNo (None, 128, 128, 128 512         conv2d_25[0][0]                  \n","__________________________________________________________________________________________________\n","activation_10 (Activation)      (None, 128, 128, 128 0           batch_normalization_27[0][0]     \n","__________________________________________________________________________________________________\n","conv2d_26 (Conv2D)              (None, 64, 64, 256)  295168      activation_10[0][0]              \n","__________________________________________________________________________________________________\n","batch_normalization_28 (BatchNo (None, 64, 64, 256)  1024        conv2d_26[0][0]                  \n","__________________________________________________________________________________________________\n","activation_11 (Activation)      (None, 64, 64, 256)  0           batch_normalization_28[0][0]     \n","__________________________________________________________________________________________________\n","conv2d_27 (Conv2D)              (None, 32, 32, 512)  1180160     activation_11[0][0]              \n","__________________________________________________________________________________________________\n","input_8 (InputLayer)            [(None, 7, 7, 2048)] 0                                            \n","__________________________________________________________________________________________________\n","batch_normalization_29 (BatchNo (None, 32, 32, 512)  2048        conv2d_27[0][0]                  \n","__________________________________________________________________________________________________\n","conv2d_23 (Conv2D)              (None, 4, 4, 512)    9437696     input_8[0][0]                    \n","__________________________________________________________________________________________________\n","activation_12 (Activation)      (None, 32, 32, 512)  0           batch_normalization_29[0][0]     \n","__________________________________________________________________________________________________\n","up_sampling2d (UpSampling2D)    (None, 32, 32, 512)  0           conv2d_23[0][0]                  \n","__________________________________________________________________________________________________\n","concatenate_8 (Concatenate)     (None, 32, 32, 1024) 0           activation_12[0][0]              \n","                                                                 up_sampling2d[0][0]              \n","__________________________________________________________________________________________________\n","conv2d_28 (Conv2D)              (None, 32, 32, 1)    9217        concatenate_8[0][0]              \n","==================================================================================================\n","Total params: 11,000,321\n","Trainable params: 10,998,529\n","Non-trainable params: 1,792\n","__________________________________________________________________________________________________\n"],"name":"stdout"}]},{"cell_type":"code","metadata":{"id
…
